model.pt (torch, 34889 bytes, 4 tensors)

weight f4 [256, 20]
0	0x3e64e7f0	0.22354102
1	0x3e6146ba	0.21999636
2	0x3dbe3ff0	0.09289539
3	0xbe4df7f8	-0.20114124
4	0x3ded8e68	0.115994275
5	0xbe4be8f5	-0.19913085
6	0x3d83fdfc	0.06444928
7	0x3e1f111c	0.1553387
8	0x3e2214be	0.15828225
9	0xbe581b53	-0.21104173
10	0xbccdb0b8	-0.02510868
11	0x3e089d60	0.13341284
12	0x3e513788	0.2043134
13	0x3e565b66	0.20933303
14	0xbdca03dd	-0.09864018
15	0x3d603b48	0.054744035
16	0x3ddf3288	0.1089831
17	0xbe466678	-0.19375026
18	0xbe0fce74	-0.140436
19	0x3e439924	0.19101387
20	0x3df3a5e4	0.118968755
21	0xbdb1da70	-0.08684242
22	0xbe01d190	-0.12677598
23	0x3e103fee	0.14086887
24	0x3e549942	0.20761588
25	0xbd82c92a	-0.06386025
26	0xbe350c6d	-0.17680521
27	0xbccc63e0	-0.024949968
28	0xbd6e1b54	-0.05813153
29	0xbe31bd49	-0.17357363
30	0x3d3fd450	0.046833336
31	0xbc71d960	-0.014761299
32	0xbdc6ec5e	-0.09713052
33	0x3bfd3120	0.0077268034
34	0xbc6f93c0	-0.014622629
35	0xbe1a2cc2	-0.15056136
36	0xbdfbd523	-0.12296512
37	0x3e098624	0.13430077
38	0xbdb72110	-0.08941853
39	0xbc57ad20	-0.013163835
40	0xbc3ac020	-0.011398345
41	0x3daa04bc	0.08301684
42	0xbd5f7b5c	-0.054561004
43	0xbe07f4b1	-0.13276936
44	0x3e3e01ce	0.18555376
45	0xbe4b5011	-0.19854762
46	0x3d940904	0.07228282
47	0xbdc0c7f2	-0.094131365
48	0xbdf4848b	-0.11939343
49	0x3e5d943c	0.21638578
50	0xbe13e254	-0.14441806
51	0x3dba90fc	0.09109685
52	0xbc53f180	-0.012935996
53	0x3e1745e6	0.14772758
54	0xbd830b56	-0.063986465
55	0x3e50b010	0.20379663
56	0x3d82e600	0.06391525
57	0xbe609370	-0.21931243
58	0xbe28d491	-0.16487338
59	0x3e56e7a8	0.20986807
60	0x3dc3767c	0.095440835
61	0xbdf12528	-0.11774665
62	0xbe4ab2ea	-0.19794813
63	0x3e22ac38	0.15886009
64	0x3dbadd54	0.09124246
65	0xbd0e7168	-0.03477612
66	0xbe520380	-0.20509148
67	0xbd417e8c	-0.047239825
68	0x3d755328	0.059893757
69	0x3e3b738c	0.18305796
70	0xbb953160	-0.004553005
71	0x3e320b42	0.17387107
72	0x3e39fe72	0.1816347
73	0x3dbadba0	0.091239214
74	0xbe15e2b6	-0.14637265
75	0xbd703390	-0.058642924
76	0xbdf86de2	-0.121303335
77	0x3e53cd32	0.20683745
78	0xbe300708	-0.17190182
79	0xbe2cabb2	-0.16862372
80	0xbbe7efa0	-0.007078126
81	0xbd5a8f6c	-0.053359434
82	0xbe048764	-0.12942272
83	0x3d82d18c	0.06387624
84	0x3d9ffe70	0.07812202
85	0xbe072080	-0.13195992
86	0x3e3a4880	0.18191719
87	0xbe3b57e0	-0.1829524
88	0xbdd40f1e	-0.10354446
89	0xbe4ed76c	-0.20199364
90	0x3e5140a4	0.20434815
91	0xbe218bf7	-0.15776049
92	0xbe03234e	-0.12806436
93	0x3db3b8dc	0.087754935
94	0x3e1fdaa6	0.15610752
95	0xbd8e60ee	-0.069520816
96	0xbe25557c	-0.16145891
97	0x3e5daadc	0.21647209
98	0x3e54ac5a	0.20768872
99	0xbca7e058	-0.020492718
100	0x3adac900	0.0016691983
101	0x3dc17c70	0.09447563
102	0xbc8fcd00	-0.017553806
103	0x3d6c8990	0.057748377
104	0xbe0bee62	-0.13665155
105	0x3df4068c	0.11915311
106	0x3dcf27fc	0.10115048
107	0xbdfbe56f	-0.1229962
108	0x3de25158	0.11050671
109	0x3d5788a0	0.05262053
110	0xbdefc478	-0.11707395
111	0x3c281940	0.010259926
112	0xbccbd308	-0.024880901
113	0x3e17e882	0.14834788
114	0xbe065c5a	-0.13121167
115	0x3af3c380	0.0018597692
116	0xbdeb02a0	-0.1147511
117	0xbd37eb3c	-0.04490207
118	0xbc679750	-0.014135197
119	0x3e27b61a	0.1637806
120	0x3e382348	0.17982209
121	0x3e42f97c	0.19040483
122	0x3e36a778	0.17837322
123	0xbd7c2cd0	-0.061566174
124	0x3b309e40	0.0026949793
125	0xbe5c8299	-0.21534194
126	0x3e109e10	0.14122796
127	0x3deae348	0.11469132
128	0x3c5bba30	0.01341109
129	0xbdfdc209	-0.12390525
130	0xbe051eec	-0.13000077
131	0x3e2746d6	0.16335616
132	0xbd7a9968	-0.061181456
133	0x3dffdea4	0.12493637
134	0x3e4c3e58	0.19945657
135	0x3d8e74a0	0.06955838
136	0xbdfefa87	-0.12450128
137	0x3e37f47c	0.17964357
138	0xbe44d301	-0.19221117
139	0xbc76d4b0	-0.015065357
140	0xbe574b48	-0.21024811
141	0xbced34f8	-0.028955922
142	0xbe4fdbe4	-0.20298725
143	0x3d3cf2d8	0.04613003
144	0x3e2cbbd8	0.16868532
145	0xbe3d3ca6	-0.18480167
146	0x3e1f6f0e	0.15569708
147	0x3d8cbfa8	0.06872493
148	0x3cb73ff0	0.022369355
149	0xbddceab0	-0.107869506
150	0xbe3964e1	-0.18104888
151	0x3dc447a4	0.09583977
152	0xbe240efa	-0.16021338
153	0x3e4471b8	0.19184005
154	0xbe325a9d	-0.17417379
155	0x3bd3a920	0.0064593703
156	0xbe45898d	-0.19290753
157	0x3e502536	0.20326695
158	0xbd5f7af8	-0.05456063
159	0x3e6032a0	0.21894312
160	0xbdb61748	-0.08891159
161	0xbe127d13	-0.14305525
162	0xbe5ff216	-0.21869692
163	0xbd5c5120	-0.053788304
164	0x3e28ed16	0.16496691
165	0x3e42869c	0.18996662
166	0xbc982218	-0.018570945
167	0xbc664da0	-0.014056593
168	0x3d86900c	0.065704435
169	0xbe5198c2	-0.20468429
170	0xbdee1216	-0.11624543
171	0xbe45f373	-0.1933115
172	0x3e4f32c2	0.20234206
173	0xbc60c7c0	-0.013719499
174	0xbce1eee0	-0.027579725
175	0xbe36a916	-0.17837939
176	0xbcf44570	-0.029818267
177	0x3ca47ac8	0.020078078
178	0x3e200fe0	0.15631056
179	0x3e2c0fd6	0.16802916
180	0x3e4e8468	0.20167696
181	0x3e148de6	0.14507255
182	0xbe13e161	-0.14441444
183	0x3dbe0040	0.092773914
184	0x3d12f8a0	0.03588164
185	0x3e1139ca	0.14182201
186	0xbdf8c093	-0.121461056
187	0xbd31acf8	-0.043377846
188	0xbd2a9018	-0.041641325
189	0x3ca843e8	0.020540193
190	0xbe0267ba	-0.12734881
191	0x3e074712	0.13210705
192	0xbe21ac35	-0.15788348
193	0xbda6cffa	-0.08145137
194	0x3e4d046c	0.20021218
195	0x3e0638ea	0.13107648
196	0x3d9484e4	0.072519094
197	0x3cf7bd50	0.030241638
198	0xbca0fd18	-0.019651935
199	0xbe08501e	-0.13311812
200	0x3e25fc38	0.16209495
201	0x3e4465a8	0.19179404
202	0xbd9cf184	-0.07663253
203	0x3ddff6ac	0.10935721
204	0xbe535d7f	-0.20641135
205	0xbdb0975a	-0.08622618
206	0x3db96ef4	0.09054366
207	0x3e0e7cfe	0.13914868
208	0x3d8c7f10	0.06860173
209	0x3d482660	0.048864722
210	0x3e4c58d6	0.19955763
211	0xbd8cee4c	-0.06881389
212	0xbdfd1eea	-0.12359412
213	0xbe2a8672	-0.1665285
214	0xbdce42e3	-0.100713514
215	0x3e4acbec	0.19804353
216	0xbd8a38d6	-0.06749122
217	0x3d853f78	0.06506246
218	0x3e406d44	0.18791682
219	0x3dfb6934	0.12275925
220	0x3cd86ae0	0.02641815
221	0xbe00db00	-0.12583542
222	0xbd262878	-0.040565938
223	0x3e1c1f56	0.15246329
224	0xbce34210	-0.027741462
225	0xbc5edda0	-0.013602644
226	0x3d8000ec	0.06250176
227	0x3d9f0460	0.07764506
228	0xbe41cc8c	-0.18925685
229	0xbdc05940	-0.09392023
230	0x3d747b98	0.05968818
231	0xbc0f6080	-0.008751035
232	0xbd5d98e0	-0.05410087
233	0xbe4e2261	-0.20130302
234	0xbdc90ab2	-0.09816493
235	0xbd502944	-0.050820604
236	0xbd99c48c	-0.075081915
237	0xbde00c58	-0.109398544
238	0xbde38f58	-0.11111325
239	0xbe1db773	-0.15402012
240	0x3dcde640	0.10053682
241	0x3e50c7e8	0.20388758
242	0xbd57214c	-0.05252199
243	0x3e612d8e	0.21990034
244	0x3da32910	0.079668164
245	0xbbca0000	-0.006164551
246	0xbe3fac12	-0.18717983
247	0x3e306462	0.17225793
248	0x3e1d392c	0.1535384
249	0xbe2979fb	-0.16550438
250	0xbd5caad8	-0.053873867
251	0x3dc1544c	0.094399065
252	0x3cde97e0	0.027172029
253	0x3e0984ac	0.13429517
254	0x3de22ea4	0.11044052
255	0x3d3428a8	0.043984085

bias f4 [256]
0	0xbe421270	-0.18952346
1	0x3e3e5618	0.1858753
2	0xbda0eb96	-0.078574345
3	0x3db27754	0.08714166
4	0x3c67a850	0.01413925
5	0xbe2fe4ca	-0.1717712
6	0x3c96b878	0.018398508
7	0x3b832700	0.004002452
8	0x3cbb0ac8	0.02283229
9	0x3e5c2060	0.21496725
10	0x3e61a72c	0.22036427
11	0xbe206a82	-0.1566563
12	0xbd537384	-0.051623836
13	0xbdd501d1	-0.10400737
14	0xbbadd260	-0.0053046197
15	0xbc40d200	-0.011768818
16	0x3e60bc84	0.21946913
17	0xbda18ac6	-0.07887797
18	0x3d128548	0.03577164
19	0x3dc6281c	0.09675619
20	0x3e39976a	0.18124166
21	0x3e481448	0.19538987
22	0xbe033010	-0.12811303
23	0xbd3a7090	-0.045517504
24	0x3e00592a	0.12534013
25	0xbc872888	-0.016498819
26	0x3bee63e0	0.0072750896
27	0x3e063898	0.13107526
28	0x3da12888	0.07869059
29	0xbdeb67b5	-0.1149439
30	0x3dc09720	0.09403825
31	0x3d83ebc4	0.06441453
32	0x3c93a5e0	0.018023431
33	0xbe42ca10	-0.19022393
34	0xbce44fb0	-0.02787003
35	0xbb987980	-0.004653156
36	0x3e17c40e	0.14820883
37	0x3d9f5718	0.07780284
38	0x3e015fee	0.1263425
39	0xbd8dbdda	-0.06920977
40	0x3da96168	0.08270532
41	0x3e27f3b4	0.16401559
42	0xbd33c8fc	-0.043892846
43	0x3e2248fe	0.15848157
44	0xbdf51180	-0.119662285
45	0xbe577132	-0.21039274
46	0x3e10442a	0.14088503
47	0xbe4de3e5	-0.20106466
48	0xbe02dd8c	-0.12779826
49	0xbd9afa2e	-0.07567249
50	0xbe43db9e	-0.19126746
51	0xbdac0754	-0.08399835
52	0xbe5e1ad9	-0.21689929
53	0x3e1fccb8	0.15605438
54	0xbe1083b4	-0.14112741
55	0x3e1030ce	0.14081118
56	0x3dcd1734	0.10014191
57	0xbd876c8a	-0.06612499
58	0xbd66cc30	-0.056347072
59	0xbdd7b9e7	-0.10533505
60	0xbd87c908	-0.066301405
61	0x3e0c56fc	0.13705057
62	0xbd86af46	-0.065763995
63	0x3e1d409a	0.15356675
64	0xbe200059	-0.15625133
65	0xbc378740	-0.01120168
66	0xbdc52d9a	-0.096278384
67	0xbda94630	-0.0826534
68	0x3e630ba6	0.22172412
69	0x3daa0074	0.08300868
70	0xbe3c1151	-0.1836598
71	0xbe164922	-0.14676335
72	0xbd1d45c0	-0.038396597
73	0x3d6ae1b0	0.05734414
74	0x3c71ef60	0.014766544
75	0xbe2ce57e	-0.1688442
76	0xbdc41166	-0.09573631
77	0x3e5c8354	0.21534473
78	0x3b2ccb40	0.0026366264
79	0x3db80b40	0.08986521
80	0xbdcad741	-0.09904338
81	0xbe556f2e	-0.20843193
82	0x3e40b6b0	0.1881969
83	0xbcc69a98	-0.024243638
84	0x3e2a1840	0.16610813
85	0xbe423180	-0.18964195
86	0xbe61cb56	-0.22050223
87	0xbe4dabd9	-0.20085086
88	0xbc029520	-0.0079701245
89	0x3df24c10	0.11830914
90	0x3e445dec	0.19176453
91	0xbd408c70	-0.04700893
92	0xbe620d27	-0.2207533
93	0x3df47e14	0.1193811
94	0x3da72bf4	0.0816268
95	0xbe4957c2	-0.19662383
96	0x3dfef26c	0.12448582
97	0xbd7b1a18	-0.06130418
98	0x3d45c6f0	0.048285425
99	0x3d8e8d7c	0.0696058
100	0x3d5e6920	0.054299474
101	0x3e1907e2	0.14944413
102	0x3e5f4fe2	0.21807817
103	0xbe03c4e4	-0.12868077
104	0xbe149c58	-0.14512765
105	0x3de9e7d8	0.11421174
106	0x3bb373a0	0.00547643
107	0xbdc2b976	-0.0950803
108	0x3dbd7584	0.0925093
109	0xbd79d310	-0.0609923
110	0x3d374980	0.04474783
111	0xbd25dd98	-0.04049453
112	0x3e3a35e6	0.18184623
113	0xbe361804	-0.17782599
114	0xbe54e816	-0.20791659
115	0x3bc9c440	0.006157428
116	0x3e0e882c	0.13919133
117	0x3dc9fd48	0.09862763
118	0xbe50852b	-0.203633
119	0xbdd7fe7b	-0.10546585
120	0xbe48e2e5	-0.19617803
121	0xbe63f0f9	-0.22259893
122	0xbda27ff6	-0.07934563
123	0xbb618e00	-0.0034416914
124	0x3e4b218e	0.19837019
125	0xbd446ca4	-0.04795517
126	0xbe4ec893	-0.201937
127	0x3e5ac24c	0.21363181
128	0x3d87cda8	0.06631023
129	0x3d7f65f8	0.062353104
130	0x3d5f03e8	0.054447085
131	0xbdcfa1fa	-0.101383165
132	0xbe209f70	-0.1568582
133	0x3e5208aa	0.20511118
134	0xbd9e99f2	-0.077442065
135	0xbe07d3d0	-0.13264394
136	0x3e63b532	0.2223709
137	0xbd869bd8	-0.065726936
138	0xbe066546	-0.1312457
139	0x3e06ceea	0.13164869
140	0x3df17014	0.11788955
141	0x3e570e2e	0.21001503
142	0xbb77a640	-0.0037788302
143	0xbdf69a43	-0.12041142
144	0xbcbc44b8	-0.022981986
145	0xbcf8c8e0	-0.030369222
146	0xbde90d17	-0.1137945
147	0xbe124d07	-0.14287196
148	0x3e374fe2	0.17901567
149	0x3c00b240	0.007854998
150	0x3e1eec82	0.15519908
151	0xbe4badde	-0.19890544
152	0xbdf164f4	-0.117868334
153	0x3e121014	0.14263946
154	0xbde5e903	-0.11226084
155	0x3df09878	0.11747831
156	0x3cda3160	0.026634872
157	0x3cc36c60	0.023855388
158	0x3da75024	0.081695825
159	0xbc870cd8	-0.016485617
160	0xbe2fa921	-0.17154361
161	0xbde3459f	-0.110972635
162	0xba36f400	-0.0006979108
163	0x3d103208	0.035203964
164	0xbde4f9cb	-0.11180457
165	0xbe230328	-0.15919173
166	0xbdb6e92e	-0.08931194
167	0x3c0c66c0	0.008569419
168	0x3e2cc688	0.16872609
169	0xbe5fcef5	-0.21856292
170	0x3c992ee0	0.01869911
171	0xbcc93528	-0.02456148
172	0x3da3e6f8	0.08003038
173	0x3bd63760	0.006537363
174	0x3c773c90	0.015090123
175	0x3e147dfa	0.14501181
176	0xbdafd234	-0.08585015
177	0xbe0604cf	-0.13087772
178	0x3e29df7a	0.16589156
179	0x3e0972e2	0.1342273
180	0x3e043822	0.12912038
181	0xbc808458	-0.015688106
182	0x3e5905c0	0.211936
183	0xbdee569f	-0.116376154
184	0x3e441cd4	0.19151622
185	0xbe617029	-0.22015442
186	0xbe2eb698	-0.17061841
187	0xbcdedb28	-0.027204111
188	0x3e06ef72	0.13177279
189	0x3baec460	0.0053334683
190	0x3d8d7ec8	0.06908947
191	0xbe1a886c	-0.15091103
192	0x3e0bf14e	0.13666269
193	0x3d799b00	0.060938835
194	0x3d34e070	0.044159353
195	0x3dfc7e40	0.12328768
196	0x3bda7f40	0.0066680014
197	0xbd2c8ae4	-0.042124644
198	0x3e09be64	0.13451535
199	0xbd4e95cc	-0.050435826
200	0x3e16d6aa	0.14730325
201	0xbe255612	-0.16146114
202	0x3e270c54	0.16313297
203	0x3db1be84	0.08678916
204	0x3dcc7748	0.099836886
205	0x3e37dc90	0.17955232
206	0xbdb27abc	-0.08714816
207	0x3e50aa76	0.20377526
208	0x3df8b5e4	0.12144068
209	0x3e15fa94	0.14646369
210	0xbd81c070	-0.06335533
211	0xbe07036d	-0.131849
212	0x3e23a818	0.15982091
213	0xbe386bcd	-0.18009873
214	0xbd576594	-0.052587107
215	0xbd5c1a74	-0.053736165
216	0xbe4d01d6	-0.20020232
217	0xbe41fab7	-0.18943296
218	0xbdafaf52	-0.085783616
219	0x3d6cbd08	0.05779746
220	0xbda0dcd6	-0.07854621
221	0xbdfc88fd	-0.12330816
222	0xbe1cac36	-0.15300068
223	0x3daecf50	0.085356355
224	0xbe11842e	-0.14210579
225	0x3e51b10c	0.20477694
226	0xbe5d3e24	-0.21605736
227	0xbd758748	-0.059943467
228	0x3dd9a678	0.106274545
229	0xbe476478	-0.1947192
230	0x3d5bd158	0.053666443
231	0xbe5ce491	-0.21571566
232	0xbc349200	-0.011021137
233	0xbe142098	-0.14465559
234	0xbe403ff2	-0.18774393
235	0x3e2bab9e	0.16764686
236	0x3d465210	0.048418105
237	0xbe326cda	-0.17424336
238	0x3e09c336	0.13453373
239	0x3e6215e6	0.22078666
240	0x3e1080ee	0.14111683
241	0xbe04c76d	-0.129667
242	0x3e33cc9c	0.17558521
243	0xbe1c05e9	-0.1523663
244	0xbe47c2e2	-0.19507936
245	0x3e12554a	0.14290348
246	0xbdbf9800	-0.093551636
247	0xbd8f67dc	-0.070022315
248	0xbdb16d9c	-0.086634845
249	0xbd5e2e78	-0.054243535
250	0xbdb8e29c	-0.09027597
251	0xbe3ce2fa	-0.1844596
252	0xbe10ef6e	-0.14153835
253	0x3e0cbe2c	0.1374442
254	0x3d062800	0.03275299
255	0x3de0a2cc	0.10968551

weight f4 [10, 256]
0	0x3d66ec2e	0.056377582
1	0x3cda9c5c	0.026685886
2	0x3d5f1a48	0.054468423
3	0xbc6ba9c0	-0.014383733
4	0xbd29e396	-0.04147681
5	0xba5c8f00	-0.00084136426
6	0xbc9fa684	-0.01948858
7	0xbcd2d760	-0.025737464
8	0x3d759a62	0.059961684
9	0x3d7c2f4a	0.061568536
10	0xbd096ebc	-0.03355287
11	0xbbfc2210	-0.0076944903
12	0xbd7fff7c	-0.06249951
13	0xbd66c56c	-0.05634062
14	0x3d774638	0.0603697
15	0x3ae7fd40	0.0017699376
16	0xbd17622c	-0.03695886
17	0x3b8b2860	0.0042467564
18	0x3c22bb18	0.009932302
19	0x3ca657e4	0.020305581
20	0xbcd97e20	-0.026549399
21	0x3bc28840	0.0059366524
22	0xbd4d2cf8	-0.050091714
23	0x3d0539f0	0.032525957
24	0xbcbd8628	-0.02313526
25	0xbd088aa8	-0.033335358
26	0xbca73030	-0.02040872
27	0xbca780c4	-0.020447142
28	0x3cdbafb4	0.02681718
29	0xbd00b886	-0.031425975
30	0x3c43b258	0.011944376
31	0xbd163a3a	-0.036676623
32	0xbcd0dc54	-0.025495686
33	0xbd33df8c	-0.043914363
34	0x3d7b7ad8	0.06139645
35	0x3d273ed4	0.040831402
36	0x3cff017c	0.031128637
37	0x3d195060	0.037430167
38	0x3d6b51c6	0.057451032
39	0x3c16daa8	0.009207405
40	0x3d7f229e	0.062288873
41	0x3b9118b0	0.004427992
42	0x3d2cdd1a	0.042203046
43	0xbd511b60	-0.051051497
44	0x3b028320	0.0019914582
45	0x3b170540	0.00230439
46	0x3c905b14	0.017621554
47	0x3ad60240	0.0016327575
48	0xbd64ca36	-0.055856906
49	0x3d29b01a	0.04142771
50	0xbd253ab4	-0.040339187
51	0x3a7bfb00	0.0009612292
52	0xbd3cfe24	-0.046140805
53	0xbcbf6694	-0.023364343
54	0xbd3ea0b0	-0.046539962
55	0x3c658e80	0.014011025
56	0xbb516bc0	-0.0031955093
57	0xbd3acc20	-0.045604825
58	0x3d5834ac	0.052784607
59	0x3b0c52e0	0.0021411702
60	0x3bec14b0	0.0072046146
61	0x3c6777d0	0.014127687
62	0xbd388168	-0.045045286
63	0xbcbeef1c	-0.023307376
64	0x3c739400	0.014866829
65	0xbd27f4d6	-0.041004978
66	0x3d0c9ea6	0.034330986
67	0x3d467d12	0.04845912
68	0x3d5d166c	0.05397646
69	0x3c79d958	0.015249573
70	0x3c092228	0.00836996
71	0xbd4fddb4	-0.050748542
72	0xbcd6dab8	-0.02622734
73	0x3d7715da	0.060323574
74	0x3d2c5f6a	0.04208318
75	0x3d70b024	0.05876173
76	0xbd4d31aa	-0.05009619
77	0x3d22b360	0.039721847
78	0x3d44ff5c	0.048095092
79	0x3beba270	0.007190995
80	0xbd109a90	-0.035303652
81	0x3d0ec12c	0.03485219
82	0xbd1e50e0	-0.038651347
83	0xbd79b23c	-0.060960993
84	0xbcac3c8c	-0.021024965
85	0x3d5cabd8	0.05387482
86	0xbce4f1e4	-0.027947374
87	0x3c1e0628	0.009645022
88	0xbb71eda0	-0.0036915317
89	0x3ce37f50	0.027770668
90	0x3cc733b8	0.024316654
91	0xbd4897f2	-0.04897303
92	0x3cc5dff8	0.024154648
93	0xbd76dcec	-0.06026928
94	0x3ce94328	0.028474405
95	0x3d38de3c	0.045133814
96	0x3cd8eab0	0.026479095
97	0xbc69b2e0	-0.0142638385
98	0xbcd9e92c	-0.026600443
99	0x3d46f5f0	0.048574388
100	0xbd5dda94	-0.05416353
101	0xbd0e8be4	-0.03480138
102	0x3d4a5ad8	0.04940304
103	0xbc8b7d40	-0.017027497
104	0x3d7ca11e	0.06167709
105	0xbc0867d0	-0.008325532
106	0xbca00bd4	-0.01953689
107	0xbc7d78a0	-0.015470654
108	0x3cf3d35c	0.02976387
109	0x3cefe52c	0.029284082
110	0x3d563cb0	0.05230397
111	0x3d693cb4	0.056942657
112	0x3d617fc0	0.055053473
113	0xbb8c29d0	-0.0042774454
114	0xbca5d374	-0.02024243
115	0x3d2fdb44	0.042933717
116	0x3d38e3b8	0.045139045
117	0x3c88eaec	0.016713582
118	0xbb6d70a0	-0.003623046
119	0x3cd45544	0.025919564
120	0xbcb92ef0	-0.02260539
121	0xbcde6a40	-0.027150273
122	0x3ca2b4dc	0.019861631
123	0x3bfbfff0	0.0076904222
124	0x3d43b6b8	0.047781676
125	0xbd19367c	-0.037405476
126	0x3c400150	0.011719063
127	0x3cf20fd0	0.029548556
128	0xbb5c7040	-0.0033636242
129	0x3d27931e	0.040911786
130	0xbcb55570	-0.022135466
131	0xbd3c1a48	-0.0459235
132	0x3cd8f05c	0.0264818
133	0xbd28f39e	-0.041247956
134	0x3bc5d0b0	0.0060368404
135	0xbd204bd6	-0.039134823
136	0xbc4ee630	-0.012628123
137	0xbc6f9ee8	-0.014625289
138	0xbc5bdf78	-0.013419978
139	0x3c8200a8	0.015869454
140	0x3c2bf9d0	0.010496572
141	0xbd6894f8	-0.056782693
142	0x3ca9d084	0.02072931
143	0xbd399d4c	-0.045316026
144	0xbd4bc38a	-0.049747027
145	0xbd39da8e	-0.045374446
146	0x3d70a23a	0.05874846
147	0xba73d680	-0.00093016773
148	0xbcfbea04	-0.030751236
149	0xbd365244	-0.04451205
150	0x3cccd47c	0.025003664
151	0xbb680ec0	-0.0035409182
152	0xbd7c4154	-0.06158574
153	0xbc9b852c	-0.0189844
154	0x3bdd6690	0.006756611
155	0x3cf40d5c	0.029791526
156	0x3d4f20be	0.050568335
157	0xbb38c680	-0.0028194487
158	0xbd1a11a4	-0.03761448
159	0x3d037150	0.032090485
160	0x3c90d698	0.017680451
161	0x3ab1ffc0	0.0013580248
162	0x3c858d18	0.01630263
163	0xbbcbfd10	-0.0062252358
164	0xbd012c8a	-0.031536616
165	0xbd470a46	-0.048593782
166	0x3d5c89d8	0.053842396
167	0xbca3cb08	-0.019994274
168	0xbce2c730	-0.02768287
169	0xbcdc7678	-0.026911959
170	0x3b37be40	0.0028036982
171	0xbc367138	-0.011135392
172	0xbd7c8c74	-0.061657384
173	0xbc61a778	-0.013772838
174	0x3d6c2202	0.05764962
175	0x3d485ebc	0.04891847
176	0x3d1df27c	0.03856133
177	0x3d4a804a	0.049438752
178	0x3b247f40	0.002510026
179	0x3d55d8f0	0.05220884
180	0x3d7e50ba	0.062088706
181	0xbd79c278	-0.060976475
182	0x3d183588	0.037160426
183	0x3a014780	0.0004931614
184	0xbcc98dc8	-0.02460374
185	0xbb4cb640	-0.003123656
186	0x3d6e0854	0.05811341
187	0x3d3290d0	0.043595135
188	0xbd0f7736	-0.035025798
189	0xbd499308	-0.049212486
190	0xbd5d9590	-0.054097712
191	0xbd614444	-0.054996744
192	0xbc236a38	-0.009974055
193	0xbd2f36cc	-0.042776868
194	0x3b976ee0	0.0046213716
195	0x3d6ce722	0.057837613
196	0xbabe0740	-0.001449801
197	0x3d109c0a	0.03530506
198	0xbd6253a4	-0.055255547
199	0x3d510328	0.0510284
200	0xbd79b1cc	-0.060960576
201	0xbbe7ad10	-0.007070191
202	0x3d51e358	0.051242203
203	0x3d4bf4d4	0.049794033
204	0x3cd6ee80	0.026236773
205	0xbc75d880	-0.015005231
206	0xbb5c5a00	-0.003362298
207	0xba4eb300	-0.00078849494
208	0xbc559ab0	-0.013037369
209	0x3cf7cc18	0.030248687
210	0xbc1f06e8	-0.009706236
211	0xbce0a03c	-0.027420156
212	0xbd13a646	-0.036047243
213	0x3bb9abe0	0.005666241
214	0xbc8737f8	-0.01650618
215	0x3d358b30	0.044322193
216	0x3d30d9d2	0.04317648
217	0x3c2ab960	0.010420173
218	0x3c8cc8d0	0.017185599
219	0xbd60532e	-0.054766826
220	0xbcba2740	-0.022723794
221	0x3c044b58	0.008074604
222	0xbd4554e2	-0.048176654
223	0x3d597358	0.053088516
224	0x3d076fe2	0.033065684
225	0xbd445cc0	-0.047940016
226	0xbd127a70	-0.035761297
227	0x3d7a5cd0	0.06112367
228	0x3cd2c788	0.02572991
229	0xbd6ab184	-0.0572982
230	0x3d4f2416	0.050571524
231	0x3c339610	0.010961071
232	0x3c85cbbc	0.0163325
233	0x3cd0ded0	0.02549687
234	0x3d49ba42	0.049249895
235	0x3d31489c	0.043282136
236	0xbd7bfb60	-0.061519027
237	0x3d32c0f6	0.043641053
238	0x3d0bdb94	0.034144953
239	0x3d1ed0e8	0.038773447
240	0xbd739ea8	-0.05947748
241	0xbc247120	-0.010036737
242	0x3d7ef96a	0.06224958
243	0xbd0d844c	-0.034549996
244	0xbd3783f0	-0.04480356
245	0x3d28a4e2	0.04117287
246	0xbd36bfb2	-0.04461641
247	0x3d70d20c	0.058794066
248	0x3d1b33e6	0.03789129
249	0x3cf66f98	0.030082509
250	0x3d61937a	0.055072285
251	0xbd7a7eb2	-0.061155982
252	0xbd22edc4	-0.039777532
253	0xbd1b87b8	-0.03797123
254	0x3d0c6950	0.03428012
255	0x3c9bf2e0	0.01903671

bias f4 [10]
0	0xbcb70bec	-0.022344552
1	0x3d314148	0.043275148
2	0x39294400	0.00016142428
3	0x3c93747c	0.01799988
4	0x3d32db7e	0.043666355
5	0x3c2c5958	0.010519348
6	0x3d415db6	0.04720851
7	0xbc04f810	-0.008115783
8	0x3afb0a80	0.001915291
9	0x3d502cf8	0.050824136
